C:\Users\Y\AppData\Local\Google\Chrome\User Data/optimization_guide_model_store/20/AC9BF66B1B98B9AD/D48BB9B6CA098D3C/model.tflite (tflite, 64852 bytes, 5 tensors)

arith.constant f4 [1, 64]
00000000: 3604 8c3e 8c9d ab3e f5b9 793e 376f 94be
00000010: 6d42 083f 6a95 62bd 52ca d03d 77a4 c03d
00000020: 9dcb 74be cf04 2c3e 7c43 22bd 0997 85be
00000030: c365 d93d b723 0c3c ec8b 823e 9f2a 313e
00000040: ed9f 9dbd 00e6 a63e c8fd 5b3e 8f0f 473e
00000050: 9b75 123e 22f0 7f3e eed9 79be 692f 02be
00000060: f585 d73e 9177 00bd 759a 9f3e 4fe2 733e
00000070: bad8 82bc 4712 bebd de82 91be 078d 86be
00000080: fed3 6ebe c8b6 963c e911 a9be a57f 80be
00000090: 1e15 10be 472e 963e 7116 563e 20e0 32be
000000a0: 4225 533e b241 023e dfec f83d 9613 46be
000000b0: b134 27be a88e 3e3d 3226 8f3d 3583 a0be
000000c0: 7d95 46be 201f 303e 1d4b cc3c 99f1 813e
000000d0: 7e14 433e 8e45 ab3c c056 ae3d 91fc d33c
000000e0: 6a1a 5dbe 2eee 9cbd 7bb4 71be 24f4 9c3e
000000f0: 4271 a33e 042d 2e3e bc31 36be 143d 92be
0.27346963 0.33518636 0.24387343 -0.289911 0.5322636 -0.055318274 0.101948395 0.09406369
-0.23905797 0.1679871 -0.03961514 -0.26091793 0.10615113 0.008553437 0.25497377 0.17301415
-0.07696519 0.3259735 0.21483529 0.19439529 0.14302675 0.24993947 -0.2439954 -0.12713398
0.4209439 -0.031364027 0.3117253 0.23816799 -0.015972484 -0.0928083 -0.28420156 -0.2627947
-0.23323056 0.018397704 -0.33021477 -0.25097385 -0.14070556 0.29332182 0.20906998 -0.1746831
0.20619681 0.12720373 0.121545546 -0.19343409 -0.16328694 0.046522766 0.06989707 -0.31350103
-0.19392963 0.17199373 0.02493816 0.25379637 0.19050786 0.02090719 0.0851264 0.025877269
-0.21592107 -0.07662617 -0.23604004 0.30655015 0.31922346 0.1700936 -0.1779241 -0.28562224

arith.constant1 f4 [64, 128]
00000000: 0f19 a03d b0e9 1b3e 34c9 68bd 2d86 bc3c
00000010: 6693 ab3c b7f9 5e3d 2c17 11bd 6c72 83bd
00000020: a25b 37be 5dfa 4dbe a596 ca3d d44d 033e
00000030: 7921 803c f9a4 15be 082a 22be 5fe5 c6bb
00000040: 762f 12be 26bc d1bc 579c 21bd bf85 b5bc
00000050: dfca 393e ef08 143e adff 3c3c 612f 49be
00000060: 94be 283e efce 033a 0e0e 0bbe 24e6 adbd
00000070: 062d 83bd 89ee 61bd 42cf 67bd e374 083d
00000080: ad39 b83d ed28 afbc 5861 94bb 1f7a 3f3e
00000090: 7284 313e 2fd9 f53d 2cbf cabd ea0d 6cbd
000000a0: fb00 f03d 36e8 3a3e fa6c 2d3e 3801 193e
000000b0: 6986 043e 3bbc bc3d e8ab 0e3e 91e2 4ebc
000000c0: eb89 28be 11b8 473d d638 a5bb 5b2c b4bd
000000d0: 9410 cdbc b01f 02bd b6ec dbbc 9647 1abe
000000e0: b50f 703d 1211 2fbc d10d 3fbd 8a56 3c3e
000000f0: 5d24 18be 5edb e73c 41b6 cb3d 3ca3 aebd
00000100: 56d8 ce3d 88f3 acbd cada 0dbe 6db1 cf3d
00000110: 52ac 15be 2b5a bcbd 9587 6f3a 3908 25be
00000120: e23f 3abc 6366 1d3e 755e 04be 699e eebd
00000130: 5c16 d6bc 9628 cdbd 0ed1 343e 2b8e 3cbd
00000140: a577 3b3d 5dc6 c9bd 83f4 4d3e c409 a4bd
00000150: 497d 4a3c 2ac2 8d3a 3dde 393c fe91 95bd
00000160: 7043 0bbe 3909 a73d 87b4 13be 422b 1a3d
00000170: 2382 01be c96d bc3d dfef 2fbe ea3f f83d
00000180: 4d8a fdbd 7689 2bbe fccd 5e3d e114 40be
00000190: 722b 7f3b b4c4 3e3e 025b ac3d 9b76 373d
000001a0: baf4 4cbd c4a0 1a3c acec fa3c 9d65 b53d
000001b0: 5f79 e53d 2503 96bd 53df 26be 020b 0bbd
000001c0: 8ed6 38be 783b fd3d 55d9 88bc 1398 0c3e
000001d0: cf01 fdbd 084b 24be 73d9 103e 5c5c 463b
000001e0: 6c9b d23d 6a4f 9b3d 19d3 d0bd da4b 373d
000001f0: 0ad4 203e e4bf 953d e463 dabd c270 2f3e
00000200: 3dd4 b73d d745 bb3d ab11 12be 4e80 163e
00000210: b3ef 8dbd 5792 94bd 5e99 f03d 45dd 1dbe
00000220: 6a87 3a3d d9d0 acbd b58b 34bc 892a ffbd
00000230: 0a4f bfbd 4c75 1fbd 258f e3bd 2a05 fabd
00000240: 1a03 ebbd 2fe8 423e df9c 0f3e 5d57 dbbb
00000250: b9c9 19bd 43e3 023e 0aaa d13d beef e73d
00000260: 0469 56bd 0898 1b3e 20dd 353d c3d4 153e
00000270: 96db 39bd e51d e43d 8b80 1cbd 28b5 a8bc
00000280: 596e 1dbd ffbb c3bd 4970 753d fe33 843d
00000290: 2f6e 03be bba4 39be 158f b0bd 2063 a43c
000002a0: 4b67 cc3d 5606 2abe f101 0c3e 8627 1bbd
000002b0: 8bf7 c63d 31ca 4a3e ba08 ad3d 735a 493e
000002c0: 83d8 b0bd 1ea7 fcbd f13d d43d 594a 26be
000002d0: af9d 57bd be1d 03be 1ce4 0a3e 3875 3a3b
000002e0: e102 2ebe b36d 9f3c 8d9b 36be 6782 6cbd
000002f0: 582c 653d bbb0 893d 8e17 473d 557a 0c3b
00000300: d74d 283e cf51 c9bc 3429 a43c 9297 ce3b
00000310: 63b4 a33d 1593 aa3d 17be 9d3d 3cd2 f83c
00000320: 1a3d e93d 7ccf 9a3d e4df 1b3e a0c7 9fbd
00000330: 5bdd 303d 4f15 b4bc d750 33be d5e6 e93d
00000340: 6740 163e 6ff7 a23d cf55 b8bd 2382 19be
00000350: 94be 083d a2b5 5b3e 26a0 a03d dc6d c73d
00000360: 851a 3d3d 961e 243e 9b80 e73b 933c cd3d
00000370: 245e bfbd a182 5f3d 4b50 003e 5c69 7b3d
00000380: 6a24 423e 1980 483d 3321 32be 3ec9 04be
00000390: 85bb 76bd 58f8 153e cb02 94bd 3d2d 63bd
000003a0: b7e2 05be a83b f0bd b043 8abc f6cc 163e
000003b0: 6a58 8bbd e433 f63d 6368 b1bd e0a6 2dbd
000003c0: b859 933d c2e2 043e 9548 9dbd 9bb9 ad3d
000003d0: 3801 0a3e 5da0 c0bd 0815 283d c31d ee3a
000003e0: 2107 1f3e be6c 1fbe ad4b 413e 9d0b be3d
000003f0: b8a5 4a3e 2e71 16be cc62 13be b3a5 263d
0.078172795 0.15225863 -0.056832507 0.023013199 0.020944308 0.054437365 -0.03542249 -0.064183086
-0.17906049 -0.20115037 0.098920144 0.12822658 0.015640961 -0.14613713 -0.15836346 -0.0060698236
-0.14275917 -0.025602411 -0.039455738 -0.022158502 0.18143795 0.14456533 0.011535567 -0.1964698
0.1647895 0.0005028089 -0.1357958 -0.084911615 -0.06405072 -0.055159125 -0.05659414 0.033314597
0.08995376 -0.02138182 -0.004528206 0.18698929 0.1733568 0.12004315 -0.098997444 -0.057630457
0.11718937 0.18252644 0.16936103 0.14941871 0.12941898 0.092155896 0.13932765 -0.01262726
-0.16458862 0.048759524 -0.0050421758 -0.08797523 -0.02503232 -0.0317685 -0.026846271 -0.1506637
0.05860873 -0.010685222 -0.046644036 0.18392387 -0.14857621 0.028302845 0.099468715 -0.08527228
0.100998566 -0.084448874 -0.13852993 0.10141263 -0.14616516 -0.09196886 0.000913733 -0.16116418
-0.01136777 0.15371089 -0.12926657 -0.11651308 -0.026133709 -0.10017507 0.17657873 -0.04603402
0.0457684 -0.09852288 0.20112805 -0.08009675 0.012358972 0.0010815312 0.01134449 -0.073032364
-0.13599944 0.08156056 -0.14424334 0.03763891 -0.126473 0.09200627 -0.17181347 0.12121566
-0.123798944 -0.16751656 0.05439566 -0.18757965 0.0038935808 0.18629724 0.08415796 0.044790845
-0.050038077 0.009437744 0.030630432 0.08857272 0.1120479 -0.073248185 -0.16296129 -0.033946045
-0.18050596 0.123648584 -0.016705194 0.13729887 -0.123538606 -0.16044247 0.1414545 0.0030267453
0.102835506 0.075835064 -0.10196514 0.044750072 0.15705886 0.07311991 -0.10663584 0.17132857
0.08976028 0.0914418 -0.14264552 0.14697382 -0.069304846 -0.072544746 0.117480025 -0.15416439
0.045539297 -0.08438272 -0.011019637 -0.12459285 -0.093412474 -0.038930222 -0.11111287 -0.12208016
-0.11475201 0.19033884 0.14024685 -0.006693764 -0.037545893 0.12782006 0.102375105 0.11325024
-0.052346244 0.15194714 0.044400334 0.14631943 -0.04537543 0.111385144 -0.038208526 -0.020594195
-0.038435314 -0.09557342 0.059921537 0.06455229 -0.12835 -0.18129246 -0.08621041 0.020066798
0.09980639 -0.1660398 0.13672616 -0.03787949 0.09715184 0.19803692 0.0844893 0.1966341
-0.08635046 -0.123365626 0.10363377 -0.16239299 -0.052640613 -0.12804314 0.1356358 0.0028451215
-0.16993286 0.019461488 -0.17832775 -0.05774155 0.055950493 0.06723162 0.048606448 0.002143522
0.16435944 -0.024575142 0.020039178 0.0063046897 0.079933904 0.08328835 0.077022724 0.030373685
0.11388607 0.07559106 0.15222126 -0.07801747 0.04317985 -0.021982817 -0.17511307 0.11420981
0.14673005 0.079573505 -0.09000742 -0.1499105 0.033384874 0.21456006 0.07843046 0.09737751
0.04616787 0.16027293 0.0070648915 0.10021319 -0.09344128 0.054567937 0.1253063 0.061379775
0.18959203 0.04895029 -0.17395477 -0.12967393 -0.060237426 0.14645517 -0.07227095 -0.055463064
-0.13074766 -0.117301285 -0.016877979 0.14726624 -0.06803973 0.12021616 -0.08662488 -0.042395473
0.07194847 0.12977126 -0.076798595 0.08482667 0.13477027 -0.09405587 0.041035682 0.0018166829
0.15530063 -0.15568826 0.18876524 0.09279559 0.19789779 -0.14691612 -0.14393157 0.040685367

arith.constant2 f4 [128, 12]
00000000: 944d 22bd f8ae 59be 3fcb 96bd 8c8b 183e
00000010: 2824 afbd eecb 453d 6590 f43c fa69 babd
00000020: 4058 0bbe f9bd f2bd 0877 50be 8db1 253d
00000030: 9a75 e7bc 36b7 0cbe 3091 54be 1894 f73d
00000040: 72a6 b3bd 74d1 88bb 5f9d 57be 6f17 f23c
00000050: 1f34 5a3e c2b8 ae3d e677 0a3c f6c7 05be
00000060: afda 3d3d 62df 0a3d 9dd5 07bd c1b1 c13d
00000070: 6f1a 313e b127 023e 87eb e5bc a721 76bd
00000080: abd9 17be d7bb 53be 9802 88bc c201 29be
00000090: dd35 9bbc 8497 3abc 8196 a53d 72b0 3fbe
000000a0: 94f9 263d 0dd3 8ebd 6a06 453e eeb7 1cbe
000000b0: 1cd0 f6bd b7c3 03be 28b2 433e 8c0a d2bd
000000c0: 6883 a13c b769 ddbd c6e5 31bd 51ac b13d
000000d0: 7682 04bc f83a d73d 21d4 11be fcea 11be
000000e0: c0cf 59be 58b0 113c 7ae0 773d d97c 173e
000000f0: d5dd 943d 58fb a1bd 8133 b1bd c578 37be
00000100: 1b76 14be cb2c 81bd d3b2 89bb cc15 633b
00000110: c922 e63b c994 033e 65d7 07be 1882 ca3d
00000120: a814 febd 28db 163d 7c92 cabd 3dd7 aa3c
00000130: ecf8 ba3d 3809 523d 9fed 4abe b4e0 b0bd
00000140: aca7 cf3d 3cb9 133e f9d6 1dbb 4b5f 693e
00000150: 2d0c ff3c c599 1c3d 2e07 02be 7ef1 c9bd
00000160: b4d3 9ebd 6165 12be cdf1 033e 828d bebd
00000170: d0fb 783e 07fb cf3d 8d73 1b3e d675 0c3e
00000180: 5562 b73d 6c38 0fbe 0573 ba3d 57e5 243d
00000190: fbc7 22be 2954 cebd 5716 5c3d 65eb 87bd
000001a0: 84dd 533e 2e4e 1c3e c485 2fbe 9132 db3d
000001b0: d87e c7bc 4370 dd3d 743c 56bd 3826 283e
000001c0: 7b4e 893b edd8 9abd 1279 593e e72b 71bd
000001d0: 0722 8ebe 532c 2cbe cc2d 4abd 5ba1 1a3e
000001e0: 17e9 5a3e 7b8e bebd 0bb0 5ebe 21eb 0abe
000001f0: 7067 2ebd fce8 7cbd bf9a 2b3d f01f fdbc
00000200: 9cb2 cb3d b8b5 693d 979a 1b3d 6b58 893d
00000210: bb77 963d fa8c 05be 05d6 00be 3839 4bbe
00000220: 1edc e5bd 4656 00be bf5b 153e 87e6 cc3d
00000230: eb28 723e 66ca 0fbe b61e 4dbe 009c ab3d
00000240: 3875 84bd d23d 98bd 356e a0bd eb92 cbbd
00000250: eebb 10be 3462 673d 94c2 703c f8cd a43d
00000260: 74a5 7bbe a8ff 44be c588 19bd 5876 5abd
00000270: 8826 a6bd 1216 adbd ee22 bb3c 153a 8ebd
00000280: ff20 ed3d d488 8cbd 5cda 71bc e3fc f3bc
00000290: 1e20 0cbe c6fb 003d 17fb 3d3e 20da 423e
000002a0: 45b3 31bd 1796 6fbe 6c97 073e a733 0f3e
000002b0: 1edd 10bc a676 3c3c 4ebe 84bd 27fe 15be
000002c0: 1844 3e3c 14f3 1f3d 7549 383e d10d b3bd
000002d0: 5ad5 f53d 599d 32bd 5a3d bbbd 6299 f3b9
000002e0: 9006 bfbd 296a febd b9ea acbd 7b9a 06be
000002f0: f802 313e 9371 94bc 0352 4d3e 4371 c9bd
00000300: 8e5a 56bc ab93 4d3e 8fb8 5bbe 08b5 afbd
00000310: b885 463c eb19 b93d fcc5 163e 67a4 a93d
00000320: 95e6 2e3d 2e92 e8b9 ff75 ddbc 0c1e 68bc
00000330: 9673 0a3e e452 acbc 784f ffbc 29ac ebbd
00000340: 1910 43be 68b9 e33d 3b34 a7bd 47a6 e53c
00000350: ec21 293e 8a18 303e 86f3 9a3d df14 c8bd
00000360: e7ee 37bc 0d32 d83d 88f3 b03d cff2 8fbc
00000370: 49c6 033e 7e8d 56be 5b1a 35bd 3eb2 6cbe
00000380: 6665 cd3d 2934 543b 1570 703e ef5d f3bd
00000390: bc6b 1cbe e4bd 5d3c 1d06 6f3d d5d5 4fbd
000003a0: a55d 143e 8bc2 19be 5dc1 a3bc 6b9a 04be
000003b0: 173c 363e 4229 4d3d 0455 40be dede e73d
000003c0: 3945 253e 2807 0f3e 7221 67be b305 933d
000003d0: 9806 63bc 29cf dd3c 065e 0abc f84a ecbc
000003e0: d042 ba3d 1919 fbbd 39ca e13d c0af 883e
000003f0: b5da 3a3e 7d7b 0b3e ab5d 80bc 6a20 66bd
-0.039624766 -0.21258152 -0.07362985 0.14896983 -0.08551818 0.048290186 0.029854009 -0.09102245
-0.13607883 -0.11852641 -0.20357907 0.04045253 -0.028254319 -0.13741764 -0.2075851 0.120887935
-0.08771981 -0.0041753594 -0.21056126 0.02955219 0.21308945 0.085313335 0.008451438 -0.1306456
0.04635113 0.03390444 -0.033162702 0.09457732 0.1729524 0.12710454 -0.02806641 -0.060090687
-0.14829127 -0.20677124 -0.0166028 -0.16504577 -0.018946582 -0.011388663 0.08085347 -0.18719652
0.04076536 -0.069738485 0.19240728 -0.15304539 -0.120514125 -0.12867628 0.1911093 -0.10255918
0.01971598 -0.10811179 -0.04343202 0.08675445 -0.008087745 0.10509294 -0.14241077 -0.14249796
-0.21270657 0.008892141 0.060516812 0.1479372 0.072688736 -0.07909268 -0.08652402 -0.17917164
-0.14498179 -0.06307372 -0.0042022257 0.0034650443 0.0070231897 0.12849726 -0.1326576 0.09888095
-0.124062836 0.036830097 -0.09891221 0.020854587 0.09129509 0.051278323 -0.19817208 -0.08636609
0.10139403 0.1442613 -0.0024084433 0.22790258 0.031133736 0.038232584 -0.12698051 -0.09860514
-0.07755223 -0.14296485 0.12885208 -0.09304334 0.24314809 0.101553015 0.15180798 0.13716826
0.08954302 -0.13986367 0.091039695 0.040257778 -0.15896599 -0.10074646 0.053732242 -0.06636695
0.2068997 0.15264198 -0.17140871 0.10703004 -0.024352476 0.10812428 -0.052303746 0.1642083
0.004190264 -0.075609066 0.21237591 -0.05887976 -0.27760336 -0.16813783 -0.04936008 0.15100615
0.21377979 -0.0930452 -0.21746843 -0.13566257 -0.042579114 -0.06174563 0.041895624 -0.030899018
0.099461764 0.057058066 0.037989225 0.067063175 0.073470555 -0.1304206 -0.12581642 -0.19846046
-0.11223625 -0.1253291 0.1458578 0.10004907 0.23648421 -0.14042053 -0.20031247 0.08379364
-0.0646767 -0.07433666 -0.0783352 -0.09940132 -0.1413419 0.05649014 0.014694829 0.08047098
-0.24574834 -0.1923815 -0.03748395 -0.053335518 -0.08112818 -0.08451475 0.022843804 -0.06944672
0.11578559 -0.068620354 -0.014761534 -0.029783672 -0.13684127 0.03149011 0.18552814 0.1902852
-0.043383855 -0.23397098 0.13241357 0.13984548 -0.008841781 0.011502897 -0.0648161 -0.14647733
0.0116129145 0.039050177 0.17996772 -0.0874287 0.12003584 -0.04360709 -0.09142561 -0.0004646285
-0.093274236 -0.12422592 -0.08443207 -0.13144867 0.17286289 -0.018120563 0.20050816 -0.09836056
-0.013083113 0.20075862 -0.21457122 -0.08579451 0.012116842 0.090381466 0.14723963 0.082833104
0.04270037 -0.000443594 -0.027033804 -0.01416732 0.13520655 -0.02103562 -0.031165823 -0.11507446
-0.1904911 0.11119348 -0.08164259 0.028033389 0.16516846 0.17196861 0.0756598 -0.09769606
-0.011226392 0.105564214 0.086402 -0.017571835 0.12868609 -0.20952412 -0.044214588 -0.23114869
0.10029106 0.0032379723 0.23480256 -0.11883151 -0.15275472 0.013534043 0.05835544 -0.050741035
0.14488848 -0.15015619 -0.019989664 -0.12949531 0.1779636 0.050088175 -0.18782431 0.113218054
0.16139688 0.13967574 -0.22571352 0.071788214 -0.013856553 0.02707632 -0.0084452685 -0.028844342
0.09094775 -0.122606464 0.11024899 0.26696587 0.18247493 0.13621326 -0.015669664 -0.056183256

arith.constant29 f4 [64]
00000000: feb5 b53c 80ea 823d c6fa bcbd 30dc 91bc
00000010: 7013 e1bd 41b9 bbbb feb6 82bd d24a 6d3c
00000020: 77c5 44bb 3ced 203d ac80 15bd f60d 4abd
00000030: 347b c83b b3b2 5dbc 5a8b a0bc 8185 0b3c
00000040: 1c79 94bb 3526 393d 8d46 da3c 21b2 253d
00000050: e28b e5bb de17 c63b cf07 32bd ca55 c9bc
00000060: a876 b1bd 415b eb3a eadd 173a d653 853d
00000070: 95db 883b d756 aa3c 9386 b53c 2ef2 3cbd
00000080: 272d 1cbc acc8 07bb b9d1 b13c 678d ebbc
00000090: 1be5 f5bc 61a1 ed3c d615 043d 0c96 58bd
000000a0: d2c2 d33c 4767 023c 6ff3 693c 9763 07bd
000000b0: bf0a 8abd c3d0 06bd 80cc 9b3c 37c7 f3bb
000000c0: 460e 9fbc ebca 343d a4a6 103a e263 03bd
000000d0: d41f d73b 037b 17bc 16d4 8abc 4ce8 fa39
000000e0: 8efa d9bb 0ce5 4339 ff7d c0bb cea3 723d
000000f0: 645c 42bd 4575 34bc 47f8 243c 25ea 1ebd
0.022181507 0.063923836 -0.09227519 -0.017805189 -0.109900355 -0.005728871 -0.06382559 0.014483171
-0.0030024925 0.039288744 -0.036499664 -0.04932972 0.0061182026 -0.013531375 -0.019597698 0.0085157165
-0.004531039 0.045202453 0.02664497 0.04045308 -0.0070052007 0.0060453257 -0.043464478 -0.02457704
-0.0866521 0.0017956273 0.00057932606 0.06510131 0.004176567 0.020793362 0.022158897 -0.046129398
-0.0095322495 -0.0020718975 0.021706449 -0.02875395 -0.030016473 0.029007616 0.032247387 -0.05287747
0.025849734 0.007959194 0.0142792305 -0.03305396 -0.06740331 -0.032913934 0.019018412 -0.0074395197
-0.019415986 0.04413883 0.00055179955 -0.032077678 0.0065650735 -0.009245637 -0.016946834 0.0004785679
-0.006652183 0.00018681976 -0.005874395 0.059238248 -0.04745139 -0.011014287 0.01006896 -0.038797516

arith.constant30 f4 [128]
00000000: 3738 67bb 4523 0abd dcc3 913c dcc5 963c
00000010: 6c07 19bd 60c2 79bd 1b2e b1bd 0747 8b3d
00000020: 8c91 253d 88cf 0dbd d10d e9bc 44b1 1fbd
00000030: 7f73 c0bc cd7a d7bb 6e39 49bd 46a4 8ebc
00000040: 9060 c73d ad8b 073e 348c ba3c 53cd 9ebd
00000050: d0b7 4c3d e86d 8abc c77e 103d 240e 303c
00000060: 70ac 8bbc 869a 333d bb2a 663d ccb2 063d
00000070: 9e2c e5bd e5e0 62bd 6752 b9bb f16d 97bd
00000080: 50c6 69bc 89a3 e63c 4b3e 5d3c 841e eabb
00000090: 2fb8 86bc 7223 5b3d 5d21 6cbd 4602 c0bc
000000a0: 6fb7 f93b fb60 37bd 3010 49bd 73e0 3bbd
000000b0: f9cb 313d fc99 46bd 3953 883d ed82 45bd
000000c0: e0fc d13a 7c82 a2bc d98f 1bbd 08a3 16bd
000000d0: e1be 90bc d941 87bd d9eb 9ebc 4141 8dbd
000000e0: 7635 00bc 8bb2 d5bc b05b 47bc c7ac 273d
000000f0: 8ab6 aebd 3af5 e03d a898 14bd 9e0d bfbc
00000100: b1da 5fbb 03ac db3a 32bc 99bb fd8c 7c3d
00000110: 056b 363b 257b 51bd 19db 8d3d 4934 2d3c
00000120: ff0c 8d3c 199d c2bc a2d4 253d 8bb9 b7bd
00000130: 4f22 aebc fc45 a2bc a3d0 87bc cecf 7d3c
00000140: d84b 69bd 1052 b1bd f795 b0bd e5bc 133c
00000150: 97f1 1e3d 2532 55bd fa3c c53c 1f54 b9bc
00000160: f0ab 133d 933e 4fbd 1a2b 69bd b86a 35bc
00000170: 2d9d 523c de64 1abd db77 d1bc 73b1 b3bd
00000180: 43c0 663d b6e7 2e3c 56d4 93bb dc87 b7bd
00000190: 8199 34bd e674 29be 1656 9dbc fbca f73b
000001a0: fcb9 8cbd 99ff 993d 44d2 673d 06cb f1bc
000001b0: 62f7 85bc c633 ab3d ec03 84bc 2d30 c5bd
000001c0: a235 7a3b 8e6e 69bc 4069 f1bc 47e5 a33c
000001d0: 33cd 9abc 9afc 88ba eed0 a53c 7c7b 503c
000001e0: 87b6 573c 4e0e 01bd fec5 fb3c fbcd 543c
000001f0: a135 32bc 4276 b03c 2a07 0ebc 006e be3c
-0.003528131 -0.033725042 0.017793588 0.018404894 -0.037360594 -0.060976386 -0.08651372 0.06800657
0.040422007 -0.034621745 -0.028448971 -0.038987413 -0.023492573 -0.0065759183 -0.049127035 -0.017412316
0.09735215 0.13236876 0.022771932 -0.07754006 0.049979985 -0.01689811 0.035277154 0.010745559
-0.017049998 0.043848537 0.056193095 0.032885358 -0.11190151 -0.055390257 -0.005655575 -0.073940165
-0.014268473 0.028154152 0.013503621 -0.007144751 -0.016445247 0.0535006 -0.057649005 -0.023438584
0.007620744 -0.044770222 -0.049087703 -0.04586835 0.043407414 -0.048486695 0.066564985 -0.048220564
0.0016020797 -0.01983761 -0.03797898 -0.036776572 -0.017669143 -0.06604356 -0.01939957 -0.06897212
-0.007825246 -0.026086112 -0.012167856 0.040936258 -0.0853091 0.10984273 -0.036278397 -0.023321923
-0.003415745 0.0016759638 -0.004691624 0.061657894 0.0027834785 -0.05114283 0.06926555 0.010571548
0.017218111 -0.02375655 0.040485986 -0.089709364 -0.021256594 -0.019808762 -0.016578978 0.015491439
-0.056957096 -0.0865823 -0.086223535 0.009017204 0.038804617 -0.052049775 0.024076927 -0.02262312
0.036052644 -0.050596785 -0.05692587 -0.011072807 0.012854856 -0.03769385 -0.025569847 -0.0877408
0.0563357 0.010675361 -0.0045113964 -0.0896146 -0.044091705 -0.165485 -0.019206088 0.007562039
-0.06871411 0.075194545 0.05659701 -0.029515754 -0.016353313 0.083594844 -0.016115151 -0.096283294
0.003817894 -0.01424755 -0.029469132 0.020006789 -0.018896675 -0.0010451258 0.020241227 0.0127247535
0.0131660765 -0.031507783 0.030734058 0.012988563 -0.010877044 0.021540765 -0.0086687 0.023245811
